depth_pre.pth (torch, 744975 bytes, 172 tensors)

low_depth_feature_extractor.conv_d_l1.conv.0.weight f4 [16, 1, 3, 3]
000000 55 4b 53 bc 9b f4 41 3e ee 55 09 3e df fc 83 be
       -0.0128963785 0.18940966 0.13411686 -0.25778863
000010 3c f9 cd be 92 49 ab be 40 cc 87 bd 0f 54 0c 3f
       -0.40229213 -0.33454567 -0.066307545 0.54815763
000020 fa 7a 81 bd 2a 2a 20 be 64 10 c2 bd 5c b0 e8 3e
       -0.06322284 -0.15641084 -0.094757825 0.45447052
000030 60 e6 83 3e 39 c2 3c 3e 95 f7 82 3c 16 26 65 be
       0.257617 0.18433465 0.015987197 -0.2237781
000040 b8 df fd be 56 b9 9b 3d d2 c6 7b bc 99 94 7c 3d
       -0.49584746 0.076037094 -0.015367227 0.06166515
000050 18 ed dd 3e a0 25 59 3d f2 2c da 3d 8d ad f0 bc
       0.4334495 0.053014398 0.10653104 -0.02937963
000060 40 87 5b be 66 7c 0a bf 69 ce 1c 3d 4c f1 d6 3d
       -0.21438313 -0.54096067 0.038282786 0.104952425
000070 60 df 59 be 1d 45 f1 be f5 4c 94 3e c6 8e 3d 3d
       -0.21276617 -0.47123042 0.28964964 0.046278737
000080 54 71 45 3d 77 9b 96 3e cb 92 9f 3e 73 7a 50 be
       0.04820378 0.29415485 0.31166682 -0.2035921
000090 ef 99 97 3d 39 21 f0 3d 5a 73 4d be 7f 40 9d be
       0.074024074 0.11725087 -0.20063534 -0.3071327
0000a0 9a 44 e3 3e 3a 42 59 be ab 57 52 bc 76 60 6d be
       0.44388276 -0.2121667 -0.0128382845 -0.23181328
0000b0 a3 4e c3 3e 02 6d 41 3e 0f 3f 51 3e 6a 5e f8 bd
       0.38145933 0.1888924 0.20434211 -0.12127383
0000c0 c4 31 c7 be 8d 68 aa be 25 9c 28 be c3 37 72 be
       -0.38905156 -0.3328289 -0.16465814 -0.23654084
0000d0 58 5c fd 3e 3d 23 9b 3e 8b 31 e4 be 15 77 6e 3e
       0.49484515 0.30300322 -0.44569048 0.23287614
0000e0 aa 3e 85 3e 4a f5 49 be b1 e5 75 3e 8b ce 2b bd
       0.2602437 -0.19722477 0.24013402 -0.04194502
0000f0 c2 6c 45 be 63 fd 03 be 92 2f 8c 3e a4 a7 52 be
       -0.19279769 -0.12889628 0.27380043 -0.20571762
000100 e6 35 22 3e c3 01 a3 3e 17 e6 31 3e df 9b 53 3e
       0.15840873 0.31837282 0.17372929 0.20664929
000110 d1 34 3f be 2f e5 dd be 70 8e 79 be 86 bd 9e be
       -0.18672492 -0.43338916 -0.24370742 -0.3100397
000120 19 dc cd 3e c2 de 29 3e de 30 76 3e 0d 2f 30 3d
       0.40206984 0.16588882 0.24042079 0.04301362
000130 49 c0 b1 be ea 46 88 3d 4a eb ab 3d fe 03 9b be
       -0.34717014 0.06654151 0.08394487 -0.30276483
000140 9b a8 b1 be 1e 9f 9f 3d 11 7b ae bc e3 8b 42 3e
       -0.34698948 0.07794021 -0.021298917 0.18998675
000150 03 cb 11 be 63 83 c7 bd db dd 48 bd fe e5 f1 bd
       -0.14237599 -0.09741857 -0.049039703 -0.11811446
000160 4a af f4 3e c9 82 7e be 41 0a 7c be f0 d5 4c 3e
       0.47789985 -0.24854578 -0.24613287 0.20003486
000170 c0 e2 ae be c9 19 a7 3e 56 9e db 3e 58 42 78 bd
       -0.34157372 0.3263686 0.42894238 -0.060610145
000180 40 c8 8f be 8e fe 27 be a2 d2 03 3e 03 d7 63 3e
       -0.28082466 -0.16405699 0.12873319 0.22249989
000190 d3 40 04 3e af 37 e7 be f2 47 a8 3d a2 11 3a be
       0.12915353 -0.4515967 0.082168475 -0.18170789
0001a0 c6 be 4a be 28 1f b7 3e bc 30 2b bd 90 b3 a9 3d
       -0.19799337 0.35765958 -0.041794524 0.08286202
0001b0 d1 29 cd 3d 1e f2 12 be 40 2d a3 3e 40 40 91 3e
       0.100177415 -0.14350173 0.3187046 0.2836933
0001c0 ad 39 41 bd ff 13 f6 be 8b 38 39 3e 1d cf be bd
       -0.047174145 -0.4806213 0.18087976 -0.093168475
0001d0 d1 00 7a be 1a 49 28 be 83 89 05 bf 82 23 4b 3d
       -0.24414374 -0.16434136 -0.5216295 0.04959441
0001e0 dd 79 19 3e a4 cf c0 be 68 ca 16 3e ff a9 89 bb
       0.14987893 -0.37658417 0.1472565 -0.0042011733
0001f0 dd 60 d7 3e df a3 9a 3e 16 4e 28 be 64 26 ae be
       0.42066088 0.3020315 -0.16436037 -0.34013665
000200 fc bc f0 bb 8a 0b f9 3d 4c fc de bd b1 73 a2 be
       -0.0073467474 0.12160404 -0.108879656 -0.3172889
000210 d4 60 69 3e e2 5c a6 3d 09 b0 8b 3e 79 57 88 3d
       0.22790843 0.08123185 0.27282742 0.06657309
000220 a0 6f 2a be 6f 42 25 be 74 e8 9c 3e 62 d0 e6 be
       -0.16644144 -0.16138624 0.30646098 -0.45080858
000230 35 c4 89 bd f6 7d e5 3e 24 88 83 bd 11 35 96 3d
       -0.06726877 0.44822663 -0.06422451 0.0733434

low_depth_feature_extractor.conv_d_l1.conv.1.weight f4 [16]
000000 f1 64 41 3f df df 52 3f 1f 30 37 3f 0f 8b 2d 3f
       0.7554465 0.8237285 0.715578 0.6779031
000010 a2 89 29 3f db 25 58 3f 0f 90 6d 3f e8 cf 4c 3f
       0.66225636 0.8443276 0.9279794 0.8000474
000020 8a 82 84 3f 20 3a 1c 3f 1a c8 39 3f 64 5a 8d 3f
       1.0352337 0.6102619 0.72570956 1.104321
000030 d2 40 2a 3f b0 a9 8a 3f f5 61 dc 3e 08 70 28 3f
       0.6650516 1.0833035 0.43043485 0.65795946

low_depth_feature_extractor.conv_d_l1.conv.1.bias f4 [16]
000000 57 b8 30 bf b9 bb 06 3e 71 82 8f bf 52 84 e0 be
       -0.6903128 0.13157548 -1.1211683 -0.43850952
000010 f2 39 38 bf 3b d8 1e bf e0 b4 29 3b bc c2 85 bf
       -0.7196342 -0.6204869 0.0025895163 -1.0450053
000020 d9 d5 ae bd f8 03 93 be 4e 5c 8b 3f 67 d6 17 3f
       -0.08536882 -0.28713965 1.0887544 0.59311527
000030 88 67 77 bf e7 a8 28 3f f3 ed 2d be a7 47 82 bf
       -0.9664235 0.65882725 -0.16985302 -1.0178117

low_depth_feature_extractor.conv_d_l1.conv.1.running_mean f4 [16]
000000 ea 32 07 be 85 f5 f8 3b 11 6d 60 bd 52 93 d4 3d
       -0.13203016 0.0075976276 -0.054791514 0.103796616
000010 45 d7 d2 3c f2 a5 d8 bc 34 ae a3 ba 00 3e 86 be
       0.025737414 -0.026446316 -0.001248783 -0.26219177
000020 ea ec 33 3a 08 dd 0b 3d d7 a8 69 bb 26 1a 94 3a
       0.0006863611 0.03414634 -0.0035653615 0.0011299297
000030 19 60 7f bd a4 57 21 3b 54 92 ec bd 03 b9 d0 bb
       -0.062347505 0.0024618888 -0.115513474 -0.0063697114

low_depth_feature_extractor.conv_d_l1.conv.1.running_var f4 [16]
000000 33 90 b7 3b 5b 71 02 3a 60 98 cb 3a a4 50 90 3b
       0.0056019067 0.0004975998 0.0015533082 0.0044041444
000010 df 28 96 39 76 8f 00 3a 3e c1 53 3a f3 01 b2 3c
       0.0002864068 0.000490419 0.00080778066 0.021729445
000020 17 f2 50 3a a9 1c da 39 96 ef ee 38 ef 91 48 3a
       0.00079706445 0.00041601554 0.00011393351 0.00076511403
000030 44 08 e6 3a e6 2b 4d 3a 3e 40 9b 3b 30 bd 33 3a
       0.0017550071 0.0007826671 0.004737883 0.0006856499

low_depth_feature_extractor.conv_d_l2.conv.0.weight f4 [32, 16, 3, 3]
000000 09 2e ce 3d 93 1f 3e 3e eb fe 5f 3e ea 52 03 3e
       0.10067374 0.18566732 0.21874587 0.12824598
000010 6f 7f 1c 3e 2e b3 da 3d 91 d7 4d 3b 2b 35 01 bd
       0.15282987 0.10678707 0.0031409005 -0.031544846
000020 1e 86 9e ba ec 45 9a bd 95 ce 8e bc 29 56 e7 bd
       -0.0012094413 -0.07532868 -0.01743249 -0.112957306
000030 97 2d 86 bd ee 95 8d 3d bc b1 4f be 49 cd 04 be
       -0.06551664 0.069133624 -0.20282644 -0.12968935
000040 71 c5 b7 3d fa 5c 4c bd b9 8a b6 be 1f e8 ac be
       0.08973206 -0.049893357 -0.35652712 -0.33770844
000050 fc 8f 1f bf 92 79 96 be b6 af 92 be 97 b1 02 bf
       -0.6232908 -0.29389626 -0.28649682 -0.5105223
000060 98 13 a5 be c2 17 ad be 61 e2 a1 be 5e 9a 21 3e
       -0.3224151 -0.33807188 -0.31618026 0.15781543
000070 a3 5e 49 3e 5d 29 81 3e 6d 03 33 3e 44 ba 2d 3e
       0.19665007 0.2522687 0.17481776 0.16965586
000080 72 33 02 3e 60 bd 15 3e 7c d8 91 3d 75 07 f8 3d
       0.12714937 0.14623022 0.07121369 0.12110797
000090 67 35 9a 3d ea c2 d1 3d f2 cf 0f 3d fa ef 2d 3d
       0.07529717 0.10242255 0.03511042 0.042465188
0000a0 9e 4b 91 3d 79 4a 94 bd d8 76 af 3d 4c 12 87 bd
       0.07094501 -0.07240767 0.085675895 -0.06595287
0000b0 4e 59 79 bd 3f c3 7b 3e 6b 25 f2 3e 0a a3 04 3f
       -0.060876183 0.24586199 0.47294173 0.5181128
0000c0 d9 87 81 3e 8d cc e6 3e c0 c4 f9 3e 58 b1 0f 3e
       0.25298956 0.45077935 0.4878292 0.14032495
0000d0 53 0d 81 3e 7a 38 ce 3e 96 ab 58 bd 33 ec b8 3e
       0.25205478 0.40277463 -0.052898012 0.36117706
0000e0 2d c2 cf 3e 5a 46 83 3c 15 e5 91 3e c5 e5 b2 3e
       0.40577832 0.016024757 0.28495088 0.34940925
0000f0 97 b1 c4 bd 72 5a 60 3e ff eb b4 3e 37 eb 60 be
       -0.09604185 0.21909502 0.353363 -0.21964727
000100 e0 96 14 be db b9 1b be ab 76 9d be 9b 53 9e be
       -0.14510679 -0.15207617 -0.307546 -0.3092316
000110 d5 4c fb be 69 49 f6 be 98 a1 f0 be e3 ec de be
       -0.49082056 -0.48102883 -0.46998286 -0.43540105
000120 05 04 f4 3e 7a 5b 86 3e 28 52 5d 3d ac ed 3b 3e
       0.47659317 0.26241666 0.05403343 0.18352383
000130 f9 07 27 3e 49 3c 32 3d e0 9b 47 3e be b7 35 3e
       0.16311635 0.043514524 0.19493055 0.17745873
000140 c8 c8 d0 3d 1c 4c 7f bd 6d a0 72 bd 20 9f c0 bd
       0.10194546 -0.062328443 -0.059235025 -0.09405351
000150 31 a7 1d bd 1e ac ca bd c1 68 21 bd f6 dd 62 bc
       -0.038489524 -0.0989611 -0.03940654 -0.013846865
000160 98 b0 cc bd b4 6c 26 be 09 62 8c bd b5 f0 80 bd
       -0.0999462 -0.16252404 -0.06854636 -0.06295911
000170 d2 6d ca 3d 3d 94 6c bd a4 05 0c 3e de 56 0e 3d
       0.09884228 -0.05775856 0.13674027 0.03475081
000180 91 1c da bd ff 9a 31 3d a8 bb 01 3e 2f 27 39 ba
       -0.1064998 0.043360706 0.12669241 -0.0007063029
000190 94 9b 88 3d 2d fb 0b 3d 9a 63 86 3d 60 f8 af 3d
       0.06670299 0.034175087 0.06561966 0.08592296
0001a0 e6 cb ea 3d ec 32 2c bd ed 56 d0 3c c8 b5 6f 3e
       0.11464672 -0.04204075 0.025432074 0.23409188
0001b0 d8 91 54 3e 36 d8 60 bd 5c 7e 6f be a7 e8 a5 3e
       0.2075876 -0.054893695 -0.23388046 0.32404062
0001c0 d4 1f 05 be 22 42 f5 bd 64 64 00 3e 20 43 3b bc
       -0.13000423 -0.119755045 0.12538296 -0.011429578
0001d0 14 64 99 bd 40 1e a7 bd 73 de 79 3d e8 bf 4c 3b
       -0.074897915 -0.081600666 0.06100316 0.0031242315
0001e0 42 6d e6 3d d5 78 19 3e 7e 83 c4 bc b3 a4 06 3e
       0.11251308 0.149875 -0.023988482 0.13148765
0001f0 70 dd a1 3d f6 e4 bd 3b 75 4e cd 3d 5b e8 18 3b
       0.07903564 0.0057951165 0.1002473 0.0023331854
000200 00 5f 76 be 88 59 c5 3d 50 8c ed 3d 59 40 3b be
       -0.24059677 0.09636217 0.11599028 -0.18286265
000210 68 93 0d 3e c5 d3 09 3e be bb 3f bd cf 91 d7 3e
       0.13825762 0.1345969 -0.046809904 0.4210343
000220 8c cc 9a 3d 05 73 f4 bc cb 45 db 3e 6c ac 3a 3e
       0.075585455 -0.029840002 0.42826685 0.18229836
000230 48 89 19 bd 4f c8 01 3f a1 85 b4 3d 17 36 ce bd
       -0.037484437 0.5069627 0.0881455 -0.100689106
000240 59 90 1a 3c ec f1 6c be ff cd 11 be ca 81 9d bd
       0.009433829 -0.23139161 -0.14238738 -0.07690771
000250 5e 16 12 3c 42 c2 87 3d 98 74 11 3e 07 f9 87 bd
       0.008916466 0.066288486 0.14204633 -0.06639295
000260 da 96 28 be 4f 02 20 bd 6d a1 a7 bc e7 78 88 bd
       -0.16463795 -0.0390647 -0.020462716 -0.06663685
000270 ac 44 7a 3e 25 28 54 3e fb 72 fc 3c 1c 6d 83 3d
       0.24440259 0.20718439 0.030816546 0.06417295
000280 19 5a cf bd 78 da e7 3d 26 43 5d be 6f c8 7d be
       -0.10124607 0.113209665 -0.21607646 -0.2478349
000290 38 5c c3 be 58 58 8d bb ae d2 2d 3e 17 ee 3d be
       -0.38156295 -0.00431351 0.16974899 -0.18547855
0002a0 81 2d 03 bf 95 28 f2 bd 06 8d e8 3d 00 30 ae bd
       -0.5124131 -0.11824147 0.11355023 -0.08505249
0002b0 0a 07 2b bc 54 9a 70 3d 78 c8 89 bc 59 3d c2 bc
       -0.01043869 0.05874093 -0.016819224 -0.023710893
0002c0 8a 33 6c 3d af 70 77 be 5a 22 24 be 61 ec 22 3d
       0.05766634 -0.24164079 -0.16028729 0.03977621
0002d0 b1 46 ae 3d e9 46 95 bd c0 ad 07 3b e9 da fb 3d
       0.08509577 -0.07288916 0.0020702928 0.12297613
0002e0 b0 ba 57 bd bf b2 48 3d 93 c6 6d be aa c8 1d be
       -0.052668273 0.04899859 -0.23220281 -0.15408579
0002f0 46 e1 a9 be 46 0d 5a be 79 b4 5a 3d 26 51 7e be
       -0.33179682 -0.21294126 0.05339477 -0.24835643
000300 40 01 66 bc 12 15 aa 3d 96 2f 1b 3e b7 13 52 3d
       -0.014038384 0.083048 0.15154871 0.051288333
000310 7a 27 f5 3d 24 0e 16 3e 8b 50 02 be 95 a4 f3 bd
       0.1197042 0.14653832 -0.12726037 -0.11896626
000320 ad 98 85 3d b3 96 25 3c f3 80 16 3e 3e 18 1d 3d
       0.06523261 0.01010673 0.14697628 0.038353197
000330 3b 04 c5 3d ef aa 8c 3d ed db 47 bd 7c 04 d6 3d
       0.096199475 0.068685405 -0.048793722 0.10450074
000340 8e 5d 59 3d 2f 34 5f bd d0 b3 07 3f 0e da 98 3e
       0.053067736 -0.054493126 0.5300875 0.29853863
000350 b3 4f b0 bd 9d d1 05 bf 2f 7c 57 b9 aa 98 7a 3e
       -0.086089514 -0.5227297 -0.0002055026 0.24472299
000360 f4 a8 b9 be be 53 9e 3d 0a 46 39 3e c2 d8 26 be
       -0.36261714 0.07730816 0.18093124 -0.16293624
000370 3d 6f f7 bc d3 34 77 3b 63 1f a7 3d 3a 1f cc bd
       -0.03020441 0.0037720695 0.081602834 -0.099668935
000380 09 4a a3 3d 54 5e fc bd 85 56 cd 3d 05 dd 1b 3d
       0.079731055 -0.12322679 0.10026268 0.038052578
000390 fa f3 3a 3b a2 68 40 3e 21 1f 86 3d 57 5f 36 3c
       0.002852677 0.18789914 0.06548906 0.011131129
0003a0 95 9d 00 3c 74 4d a4 3d 3c 73 ea bd 47 97 b1 be
       0.0078500705 0.080225855 -0.114477605 -0.34685728
0003b0 8d 0f a7 3e 6f ee 98 bd 82 8b 01 3d ad b8 66 be
       0.32629052 -0.074673526 0.031627186 -0.22531386
0003c0 87 25 29 3e ba e9 0a 3e 04 69 0e bd 8b b8 ca 3e
       0.16518222 0.13565722 -0.03476812 0.3959392
0003d0 09 32 e6 bc a2 0b 19 be 2d 84 11 bf 08 8f e0 be
       -0.02810003 -0.14945844 -0.5684231 -0.43859124
0003e0 fb 56 e6 3d 01 c8 aa be fc 0c 89 3d a6 f5 2b 3e
       0.11247059 -0.33355716 0.0669193 0.16792926
0003f0 28 93 02 3d 72 0e cf 3d e1 9f 92 3d 57 2f 5d 3e
       0.03187862 0.10110177 0.07159401 0.2160009

low_depth_feature_extractor.conv_d_l2.conv.1.weight f4 [32]
000000 09 11 0c 3d bf a0 20 3f e0 b9 69 3e a7 78 5d 3f
       0.034195933 0.6274528 0.22824812 0.86512226
000010 f1 e8 1c 3f 8e ed 77 3f a8 ed 89 3f c6 76 5b 3f
       0.6129294 0.96846855 1.0775652 0.8572811
000020 84 e3 2b 3f c8 94 dd 3e 6d 95 59 3e 8e 03 0d 3f
       0.67144036 0.43277574 0.21248408 0.5508355
000030 32 98 5f 3f a8 dd 27 3e 05 f1 6c 3f 5a 2d 82 3f
       0.87341607 0.16393149 0.92555267 1.017009
000040 b1 03 34 3e ee 59 6f 3f 6a 76 2e 3f 1c f2 5c 3f
       0.17579533 0.93496597 0.68149436 0.8630693
000050 1b a7 1c 3f c5 18 2b 3f fd 33 89 3f 7c 35 8d 3f
       0.6119248 0.6683467 1.071899 1.1031947
000060 c4 de 0c 3f c9 62 2e 3f 44 25 8b 3f a6 d7 2d 3f
       0.55027413 0.68119484 1.0870748 0.6790718
000070 60 93 d1 3e 46 71 39 3f 27 a0 8b 3f fc d3 74 3f
       0.4093275 0.72438467 1.090825 0.9563596

low_depth_feature_extractor.conv_d_l2.conv.1.bias f4 [32]
000000 a1 38 56 3f 6d 6b 31 3e 22 95 47 bd 9d 28 70 3e
       0.8368016 0.17326136 -0.04872621 0.23452993
000010 47 11 3e be 8e 90 74 3e 5d 9b 84 3e af 17 f7 bd
       -0.18561278 0.23883268 0.25899783 -0.12065064
000020 18 e0 ba be 3a 82 ed 3e 34 db 44 bf 54 be 07 3f
       -0.36499095 0.46388417 -0.7689698 0.5302479
000030 45 74 db 3d 17 f5 37 3f 16 7a d7 bd a3 36 05 3e
       0.10715536 0.7185835 -0.10521333 0.13009124
000040 60 47 0e bf 19 fa ba bd b4 f4 64 be 61 32 9a 3e
       -0.5557766 -0.091297336 -0.22358972 0.3011656
000050 79 54 41 be ce 5d 97 be ef b3 c1 bd 21 e0 19 3e
       -0.1887988 -0.29563755 -0.09458148 0.15026905
000060 dd de 8d be d8 af 6a 3e c4 c6 7e 3d e4 0b d9 3e
       -0.27709094 0.22918642 0.062201276 0.42391884
000070 fa 9b 21 3f bc 7f be be d6 9e 8c bd f1 65 53 be
       0.63128626 -0.3720683 -0.06866233 -0.20644356

low_depth_feature_extractor.conv_d_l2.conv.1.running_mean f4 [32]
000000 7f 91 be 3f ad 02 62 bf ea f6 8a bf 1d 40 b6 3e
       1.4888152 -0.8828533 -1.0856602 0.3559579
000010 96 a4 1c bf f3 de 0e bf 62 31 bc 3c 4e 2c f4 bd
       -0.6118864 -0.55808944 0.022972766 -0.11922513
000020 85 61 3a bf 0f 9b de bf 9a 12 d4 3e f9 49 20 be
       -0.72805053 -1.739107 0.41420442 -0.15653218
000030 44 c0 7d 3b f6 da a2 3f 31 02 dd bb 3d e5 50 3f
       0.0038719336 1.2723072 -0.006744646 0.8159979
000040 9d 96 c6 3f d6 93 e9 3e 18 0f be 3e d0 34 a4 be
       1.5514714 0.45620602 0.3712089 -0.32071543
000050 27 fb 71 bf 0b 6a 91 bf 10 8e c2 be 23 ff b2 3e
       -0.94523853 -1.1360487 -0.3799901 0.3496028
000060 37 2d dd bf fa 8b 7e bf 9c b3 3c 3e ed 2a e8 be
       -1.7279423 -0.9943234 0.1842789 -0.4534525
000070 45 65 5f bf 11 1e f0 3e 9f 8a 99 3e 2d 3c 4e be
       -0.872639 0.4689794 0.29988572 -0.20140143

low_depth_feature_extractor.conv_d_l2.conv.1.running_var f4 [32]
000000 5f dd a7 40 0f fe 83 3f 2b 5f 28 40 59 a9 54 3f
       5.245773 1.0311908 2.6308086 0.83070904
000010 4f 76 b5 3f 93 2e 4e 3f 0b bc d4 3f f5 f0 d6 3f
       1.417673 0.80539817 1.6619886 1.6792284
000020 3f 3b 5b 3f f2 ee 13 40 f1 5d 82 40 f4 e6 04 40
       0.8563728 2.311459 4.0739675 2.0765963
000030 41 e0 b8 3e b8 78 db 3f f4 d2 74 3f 5c ce 54 3f
       0.36108592 1.7146215 0.9563439 0.8312738
000040 3a 02 a8 3f cc 0e bb 3f 47 b4 c1 3f 2f 39 4d 3f
       1.312568 1.4613891 1.5133141 0.8016538
000050 18 61 89 3f 09 ee 12 40 11 10 b5 3f f1 d5 18 40
       1.0732756 2.2957785 1.4145528 2.388058
000060 85 a2 13 40 cc f2 f5 3f f0 f3 c0 3f c4 77 35 3f
       2.3067944 1.9214721 1.5074444 0.7088587
000070 26 89 9c 3f 6a f9 e9 3f e0 06 de 3f 31 fd 00 40
       1.2229354 1.827924 1.7345848 2.0154536

low_depth_feature_extractor.conv.conv.0.weight f4 [8, 1, 3, 3]
000000 95 3c 21 bd c7 fc 97 bd 15 0b fa bd 81 63 af bc
       -0.039364416 -0.0742126 -0.12209145 -0.021409752
000010 b1 44 20 be 63 43 95 be 97 64 d0 be 8e 04 bd be
       -0.15651204 -0.29152974 -0.40701744 -0.36917537
000020 3e 0d 2e be ce c7 d6 3e 23 71 30 3e 81 59 98 3e
       -0.16997239 0.41949314 0.17230658 0.29755786
000030 23 b1 d1 3e 29 30 34 3e be f0 6d 3e a9 56 a3 bd
       0.40955457 0.17596497 0.23236367 -0.079755135
000040 ee 26 3c bd 79 b3 5a 3e bf 70 60 be b1 4f 52 be
       -0.045935564 0.21357526 -0.21918009 -0.20538212
000050 6c 52 3d bd 81 db 19 be f7 99 05 be 3f de 00 bd
       -0.04622118 -0.1502514 -0.13047014 -0.03146195
000060 a3 b9 1f bf c4 c6 11 be bb b5 a5 be 4b bc d8 3e
       -0.62392634 -0.1423598 -0.32365212 0.42331156
000070 fb 92 0b 3f 77 bb ae 3d dd c2 b6 3e d1 3d 89 3e
       0.5452115 0.0853185 0.35695544 0.26804975
000080 02 20 1d 3d e8 f1 23 3e 54 c6 13 be b4 96 b1 be
       0.038360603 0.16010249 -0.14431125 -0.3468529
000090 a7 57 16 bf 53 74 3d be d2 41 ee be 1f 1e 78 bd
       -0.58727497 -0.18501405 -0.46534592 -0.0605756
0000a0 ff 40 7b 3e f5 c6 9f bd 1d 4a 7f be 2c 0b c0 bd
       0.24536513 -0.0780162 -0.24930616 -0.09377131
0000b0 da 85 b3 3d 63 29 32 bf ae f9 0b bf 91 19 40 be
       0.087657645 -0.695944 -0.54677856 -0.18759753
0000c0 5d 8c da bd 92 4c a7 3b b4 2f 11 be f4 37 55 3e
       -0.106713034 0.0051055634 -0.14178354 0.20822126
0000d0 5c 7b ba bb a6 7b 81 3e db 12 ae be ad 95 25 be
       -0.005690975 0.2528965 -0.3399876 -0.16170378
0000e0 26 e5 4e 3d 78 a1 f5 be b9 14 90 be f9 0d 9f be
       0.0505115 -0.47974753 -0.2814081 -0.31065348
0000f0 37 b6 e4 bd f2 e5 c4 be bb 63 bf 3e 1a e6 57 be
       -0.11167567 -0.38456684 0.37380776 -0.2108387
000100 69 53 ee 3d 0b ca 14 3d 1e 5b a4 be 9b a8 29 3e
       0.11637003 0.036325496 -0.32100767 0.16568224
000110 08 4e c7 3e dc d3 e8 bd ee 11 bf bb 63 1a c6 3e
       0.3892672 -0.11368534 -0.005830995 0.38692006

low_depth_feature_extractor.conv.conv.1.weight f4 [8]
000000 d2 17 50 3f a0 31 58 3f 03 26 13 3f 04 15 d0 3e
       0.81286347 0.8445072 0.57479876 0.40641034
000010 af 1e 5e 3f 8d f1 9b 3f 56 ee 44 3f ea 2f 24 3f
       0.8676557 1.218309 0.7692617 0.6413561

low_depth_feature_extractor.conv.conv.1.bias f4 [8]
000000 b8 fe 8d 3e af d0 5a 3e cc 3b 94 3e d2 35 ce 3e
       0.27733397 0.21368669 0.2895187 0.40275437
000010 34 14 87 3e 4e 85 a1 3d cb 87 38 3e 0e fa b3 3e
       0.263826 0.07886754 0.18020551 0.35151714

low_depth_feature_extractor.conv.conv.1.running_mean f4 [8]
000000 aa da 51 bf 65 03 63 3f 1d 60 6d bf 4d 37 2e 3f
       -0.8197428 0.88677055 -0.9272478 0.6805313
000010 b9 c2 2e bf 59 0d 19 bf 3b 51 50 bf bc 1e 65 3e
       -0.68265873 -0.5978599 -0.8137395 0.22375005

low_depth_feature_extractor.conv.conv.1.running_var f4 [8]
000000 16 51 5a 3e 33 5e 81 3e 35 a5 8c 3e ff 8a 1c 3e
       0.21319994 0.2526718 0.27469793 0.15287398
000010 b6 4b 1c 3e ea d0 f4 3d 40 7c 5a 3e 50 b8 8f 3c
       0.15263256 0.1195391 0.2133646 0.017543942

low_depth_feature_extractor.dsconv0.conv.0.weight f4 [8, 1, 3, 3]
000000 ac 8d 8b 3c fb 87 82 3e b8 fd 21 3e 60 1b 98 3e
       0.017035328 0.2549437 0.15819442 0.29708385
000010 9b b0 c8 3d cb 54 2c 3e 83 84 2b 3f 36 24 d9 3e
       0.0979931 0.16829221 0.6699907 0.4241044
000020 45 73 32 bd f4 73 18 3f e2 b8 fb 3e 3e bc d5 3d
       -0.04356696 0.5955193 0.49164492 0.10436295
000030 d2 a2 6d 3e 76 de 7f 3e 63 88 fe bd 99 64 3b 3e
       0.23206642 0.24987206 -0.124283575 0.18300094
000040 48 86 ef bd 48 7d ad be 4e b9 8e bd ff 41 d7 3d
       -0.11695534 -0.33884645 -0.06968938 0.10510635
000050 51 c1 9a 3e 78 77 7b be 29 5c 81 be d2 13 ca 3d
       0.30225614 -0.24557292 -0.25265625 0.09867062
000060 ec 3d de be a6 f8 90 be 6f ba 7c 3d 5e 2a 6f bd
       -0.43406618 -0.28314704 0.061701234 -0.058390014
000070 07 89 fa 3c 62 bf b1 3c 19 ce e9 3e 69 20 c5 3e
       0.030582918 0.021697704 0.45665053 0.3850129
000080 84 2a 3b 3e 86 87 cf 3e 03 a3 ec 3e ff ec 37 3e
       0.18277937 0.40533084 0.46218118 0.179615
000090 a6 69 0e be d8 4d 49 3e a8 bb 81 3c 81 65 17 3c
       -0.13907489 0.19658601 0.015836552 0.009240509
0000a0 9f b7 f8 3e 5c 75 23 3f 70 1f 8a be ea 9b 43 3e
       0.48577592 0.6385095 -0.2697711 0.19102445
0000b0 37 31 09 3b 8e 9c e2 3e de d8 ea bd a4 7f bf 3d
       0.0020933875 0.44260067 -0.114671454 0.093505174
0000c0 04 80 c3 3e 90 d9 fd 3e 35 2e 12 3d d1 fc 8c 3e
       0.38183606 0.4958005 0.035688598 0.27536634
0000d0 66 46 02 3e 1e 91 05 3e 17 0b d9 3c 5a 89 c4 be
       0.12722167 0.13043639 0.026494546 -0.3838604
0000e0 36 78 bb be a8 21 8e 3d 75 97 ce be 60 f3 04 bf
       -0.3661515 0.06940013 -0.40349928 -0.5193386
0000f0 59 72 0a be c9 c7 a9 be 93 ac 5a be 60 87 21 3e
       -0.13520183 -0.33160236 -0.21354894 0.15774298
000100 a8 a8 2a 3e 22 3e 22 bc ce b7 8b 3e d9 fb b5 3e
       0.166659 -0.009902509 0.2728867 0.35543707
000110 48 d7 05 3e f5 7e 3d 3e 1b cc ce 3e 64 1d 95 3e
       0.13070405 0.18505462 0.40390095 0.29123986

low_depth_feature_extractor.dsconv0.conv.1.weight f4 [8]
000000 66 8e 83 3f 45 5c 6e 3f 21 1a 4c 3f ab fe 84 3f
       1.0277832 0.9310954 0.7972737 1.0390218
000010 b4 91 98 3f ba 82 7d 3f ce e3 8c 3f b3 a6 75 3f
       1.1919465 0.990276 1.100702 0.9595749

low_depth_feature_extractor.dsconv0.conv.1.bias f4 [8]
000000 a6 4a 80 be ab b9 d5 3d e0 69 a6 3e 2c 30 87 3e
       -0.25056952 0.10435804 0.3250265 0.2640394
000010 92 99 45 be d6 95 96 be 8b b1 33 3e e7 fa 5e 3d
       -0.19296864 -0.2941119 0.17548196 0.054438498

low_depth_feature_extractor.dsconv0.conv.1.running_mean f4 [8]
000000 f9 e0 81 3f c8 7b 17 3f aa fd 95 be 4f de 63 3f
       1.0146781 0.5917325 -0.29295093 0.8901109
000010 89 c7 1a 3f cd 5b 85 3f 40 6c 77 bf e3 56 6a 3f
       0.60460716 1.041864 -0.9664955 0.9153883

low_depth_feature_extractor.dsconv0.conv.1.running_var f4 [8]
000000 de 79 9d 3f 1a 63 02 3f 7c 3c cc 3d c4 14 0f 3f
       1.2302816 0.50932467 0.09972474 0.5589106
000010 be 81 e7 3e d4 62 cc 3f 79 09 99 3f f7 ca 5b 3f
       0.45216173 1.596766 1.1956016 0.85856575

low_depth_feature_extractor.dsconv0.conv.3.weight f4 [32, 8, 1, 1]
000000 1a 59 8d 3c 09 63 b0 3e 77 c4 42 be 2d f7 d2 3d
       0.017254401 0.34450558 -0.19020258 0.10301051
000010 17 9c bf 3e 65 66 b0 3e 7e 68 a8 3e ca 2e 7b 3e
       0.37423775 0.3445312 0.3289222 0.24529567
000020 28 21 04 bf 0c c2 2b 3e d9 60 b9 bd 40 1d 28 bd
       -0.5161309 0.16773242 -0.09051675 -0.04104352
000030 73 7d f6 be 43 35 b0 be 3c 57 39 bc 46 ed c9 be
       -0.48142585 -0.34415635 -0.011312302 -0.39438838
000040 0b c5 7f 3e ee ec c5 bd a2 58 84 be 79 93 80 3e
       0.2497751 -0.096643314 -0.2584887 0.25112513
000050 16 aa 35 3e 73 ef b9 3e 83 89 d8 be d3 71 e9 be
       0.17740664 0.36315498 -0.42292413 -0.45594653
000060 20 12 01 be 86 eb 33 3e 4a 3f 23 be da a0 a3 3e
       -0.1260457 0.17570314 -0.15942112 0.31958658
000070 38 09 a2 be 5c 35 b2 be a1 e9 8f 3e 63 71 b5 3e
       -0.31647658 -0.34806335 0.28107932 0.3543807
000080 61 e9 2b be 99 81 3c 3e 71 06 80 3d b4 4f b0 3e
       -0.16788246 0.18408813 0.062512286 0.3443581
000090 27 10 19 3e dc 9f 70 be d5 aa 00 bf ee 34 8e 3d
       0.14947568 -0.23498482 -0.5026067 0.06943689
0000a0 79 b8 87 be d7 ce af 3c 62 4b ae 3e 18 89 8a be
       -0.2650793 0.021460934 0.34041888 -0.2705772
0000b0 55 84 ae bd 23 20 f1 bc ad 1e c7 3e 76 05 a7 be
       -0.08521334 -0.02943427 0.3889059 -0.32621354
0000c0 6c 9f b7 3e 07 3c cc be b0 9a 90 3d eb c4 d4 bd
       0.35863817 -0.39889547 0.07060754 -0.103891216
0000d0 b6 f6 b8 3e e8 03 ae bd 77 24 c9 be 3a 8a b9 3d
       0.36125726 -0.08496839 -0.39285633 0.09059568
0000e0 36 e6 28 bd f4 f5 9e be 9e a5 0a 3e 1e 81 7b be
       -0.04123517 -0.31047022 0.1353974 -0.24560973
0000f0 27 5b 00 3f 88 9a 8f be eb 10 a4 bc 62 f1 28 3e
       0.5013909 -0.28047585 -0.020027598 0.1649833
000100 11 0d 35 3e e9 1e 98 be f0 cf d2 3e 1b d2 24 3d
       0.17680766 -0.29711083 0.4117427 0.040239435
000110 8d a4 dd 3d f7 eb a4 3e 3e 50 2f be 4e fc b9 3e
       0.10822401 0.32211277 -0.17120454 0.36325306
000120 aa 2c a4 3d c2 2b ab 3e 5c 7d a8 be 7a 2b 47 3e
       0.080163315 0.33431822 -0.32908142 0.19450179
000130 c8 9b ee be aa 54 e9 bc c9 0b e5 bc a6 a5 b5 3e
       -0.46603227 -0.028482754 -0.027959721 0.35477942
000140 49 18 92 be 7b f7 90 3e e1 51 a0 be c7 58 02 3b
       -0.28534153 0.28313813 -0.3131247 0.0019889341
000150 1c 81 9e be 45 79 80 3d b5 6f 04 3f 03 7d 71 3d
       -0.30957878 0.0627313 0.5173295 0.05895711
000160 e8 c3 d4 3d 82 bf 2a bc 2d b5 17 bf 16 65 c8 3d
       0.10388929 -0.010421636 -0.5926083 0.097849056
000170 dd ea cb bd 1e 96 ce be c1 12 c4 be 63 cb 35 bd
       -0.09956906 -0.40348905 -0.38295558 -0.044383418
000180 38 d6 b4 3c da 7e ca be 6a c4 64 3c 67 6b ae be
       0.022074804 -0.39549905 0.013962844 -0.34066316
000190 25 77 99 be 6a 81 a0 be bd d9 46 3d a6 eb 0e be
       -0.29973713 -0.31348735 0.048547495 -0.1395708
0001a0 55 68 8e be 39 c9 89 bc 0d c7 d0 3e 2c a6 91 bd
       -0.27813974 -0.016819583 0.40776864 -0.07111773
0001b0 03 0a be 3e 65 80 0a 3d 6b 09 aa bd d1 8a 57 be
       0.37117013 0.033813853 -0.083025776 -0.21049048
0001c0 5e 40 06 be f0 05 ad 3e ef 1e e6 3d ad c2 eb bc
       -0.13110492 0.33793592 0.11236369 -0.028779352
0001d0 d8 f4 7a 3e 9a b3 90 3e 13 53 b6 be a0 3b 69 3d
       0.24507463 0.28262025 -0.35610256 0.05694163
0001e0 e0 fa 02 be c0 05 b7 3d 92 0f a8 3d 3e 4a c2 3e
       -0.12791014 0.089366436 0.08206095 0.37947267
0001f0 e3 f4 f7 be 78 eb b0 3c 56 5b 01 3e c0 f8 dc 3e
       -0.4842902 0.021596655 0.12632498 0.4315853
000200 07 a3 0d 3e 2b 02 99 3d c8 e9 9e 3e 6e f1 01 3e
       0.13831721 0.07471117 0.31037736 0.12689754
000210 b2 57 39 3f d1 c5 33 3e 33 6d 3f 3d 21 20 15 be
       0.7239944 0.1755593 0.046735 -0.14563037
000220 f6 9c e9 3e f5 b8 b8 be f0 5f cb be 51 1b 0b 3e
       0.45627564 -0.3607861 -0.39721632 0.13584639
000230 1f e0 98 3e 48 02 19 be fd 3a d7 be 7a 1c c6 bd
       0.2985849 -0.14942276 -0.42037192 -0.096734
000240 b2 cd 82 3d 02 75 af be 32 23 bf 3d f9 6b 0a 3e
       0.063868895 -0.34268957 0.09332885 0.13517751
000250 5f e7 05 bf 8c 20 93 be 0e 7b ec 3e d2 c9 a0 3e
       -0.5230617 -0.2873577 0.46187633 0.31403977
000260 54 6b af be bd 54 8e be 9c 75 6b be 01 e3 20 3e
       -0.34261572 -0.27799025 -0.22994083 0.15711595
000270 8d b2 e5 be 67 94 2f bd 02 cd 9a 3e af d8 db 3e
       -0.44862786 -0.042866137 0.30234534 0.42938754
000280 ba 02 65 3d 34 f1 01 3f 9a a9 69 bd 1c 96 09 3f
       0.055910803 0.5075867 -0.05704651 0.53744674
000290 a9 d4 dd bd 3b c2 8d bd 6a a2 44 bd db 33 ec 3e
       -0.10831577 -0.06921812 -0.048006453 0.46133313
0002a0 b6 6f 71 be e2 65 46 3e 75 b6 95 3d d8 b6 b7 3e
       -0.2357777 0.19374803 0.073101915 0.35881686
0002b0 a8 eb 4e bc 4f 86 30 3e b9 30 ff be c7 4f 79 3e
       -0.012629427 0.17238735 -0.4984186 0.24346839
0002c0 bc 94 60 be 73 6e 46 3e fc 0a 02 3e 6a 98 d7 3e
       -0.21931738 0.1937807 0.12699503 0.4210847
0002d0 02 00 36 be 67 85 06 bf 6a 62 18 bd 47 0b 1f 3f
       -0.1777344 -0.52547306 -0.03720323 0.6212658
0002e0 3d b5 94 bd 9e 57 36 3e e7 8d dd bd 82 a6 35 bf
       -0.07261131 0.17806861 -0.10818081 -0.70957196
0002f0 f2 bf e1 3e 6f b8 62 be d8 35 b0 3e 94 9a 23 be
       0.44091755 -0.22140668 0.3441608 -0.15976936
000300 c7 bf 08 3f a6 9f a0 3b 4d cd b1 be 9e 38 eb 3d
       0.5341763 0.004901844 -0.34726945 0.11485408
000310 3a cb b4 bd a6 da 5d 3d da 2d 4c be 4c 0c 10 be
       -0.08827825 0.054163598 -0.19939366 -0.14067191
000320 ae 3e 9c be 02 76 a5 3e 0e ba db 3d 61 01 b5 3e
       -0.3051657 0.32316595 0.107288465 0.35352615
000330 15 83 19 3e 0d 60 d9 be 04 79 2f 3c 74 4d 78 be
       0.1499141 -0.42456093 0.010710005 -0.24248296
000340 62 94 24 3e 58 ce 3e be cb 0e 8b be 70 7f 58 be
       0.16072229 -0.18633401 -0.27159724 -0.21142364
000350 e7 f6 ab be 2b 9b cb be f7 75 42 be 20 d7 06 3f
       -0.3358681 -0.3976682 -0.18990313 0.52672005
000360 b3 a7 fa be 2a 91 41 bc 26 13 c2 3e 36 a4 ef 3d
       -0.4895607 -0.011814395 0.37905234 0.117012426
000370 75 db a5 bd ec 2d 61 be 9e 76 09 3f 74 0f a3 bc
       -0.08098499 -0.21990174 0.5369662 -0.01990483
000380 91 f7 01 3f a2 15 bb 3e ec 0d ff bd 76 e6 54 3e
       0.5076838 0.36539942 -0.12453827 0.20791039
000390 b9 76 43 be 3f 91 0b 3e bc 85 a1 bd 34 7f 92 be
       -0.19088258 0.13629626 -0.07886836 -0.28612673
0003a0 59 ed e8 bd c2 e6 93 3e 8b c9 44 3e 6a bc 9d 3e
       -0.113733955 0.28886992 0.19217508 0.3080781
0003b0 3e f5 44 3e 1d 4c a8 be c9 3d ad be 49 03 a7 be
       0.19234177 -0.3287057 -0.338362 -0.32619694
0003c0 f0 22 a1 be d1 9b 87 3e 7c b2 1f be 2d 42 c8 3e
       -0.31471968 0.26486066 -0.1559543 0.39112988
0003d0 4e f1 ac 3e d7 2d d5 bc ea 1c c1 be bd bf 1f 3e
       0.3377785 -0.026022835 -0.37717372 0.15600486
0003e0 ba 0a be be a4 18 0f 3e d7 ca 80 3e ed 73 7a 3e
       -0.3711756 0.13974243 0.25154755 0.24458285
0003f0 b4 a3 ed bb b5 9b b1 be 59 6e 91 3d 61 94 41 3e
       -0.007252181 -0.34689108 0.07101125 0.18904258

low_depth_feature_extractor.dsconv0.conv.4.weight f4 [32]
000000 0c 6c 51 3f 95 56 07 3f eb dd 26 3f 61 66 81 3f
       0.8180549 0.5286649 0.6518237 1.0109369
000010 84 da a7 3f 34 eb ef 3e b8 55 67 3f 0d d4 90 3f
       1.3113561 0.46859133 0.9036517 1.1314713
000020 68 d7 74 3f c4 83 7c 3f 14 12 14 3f 2a bb dc 3e
       0.95641184 0.9863856 0.57840085 0.43111545
000030 71 5f 30 3f a8 34 26 3f 9c b3 56 3f ea 57 50 3f
       0.6889563 0.649241 0.8386781 0.81384146
000040 08 ca 3d 3f ad 61 3a 3f de 7c 75 3f d0 3b 31 3f
       0.741364 0.7280529 0.9589366 0.6923189
000050 dc 5b a3 3f 6b 84 5a 3f 3a e2 a2 3f e4 da 67 3f
       1.2762408 0.85358304 1.2725289 0.90568376
000060 96 0e 5d 3f 58 8a 5e 3f 5f 9d ab 3f 19 d1 24 3f
       0.8635038 0.86929846 1.3407401 0.6438156
000070 19 10 2c 3f 06 40 a3 3f eb 9c 59 3f 2f 3d 5f 3f
       0.67212063 1.2753913 0.8500506 0.87202734

low_depth_feature_extractor.dsconv0.conv.4.bias f4 [32]
000000 61 53 70 be e7 6b 16 3f 16 4d 87 3e 95 dd b6 3e
       -0.23469307 0.58758396 0.26426 0.3571593
000010 76 48 ab bd 3f 02 0a 3f 23 7a 51 3e 97 9a 57 3e
       -0.0836343 0.5390968 0.20456748 0.21055065
000020 b5 36 44 3e 9b 34 08 3e 4b 70 d2 3e 28 52 07 3f
       0.19161494 0.13301317 0.41101298 0.52859735
000030 9b c8 b7 3e 6a 46 ca 3e 72 5f 39 3e 5c 65 88 3e
       0.35895237 0.39506847 0.18102816 0.2663983
000040 3e a4 a3 be 76 69 a6 3e 4e 7f 7f 3e 06 e0 b5 3e
       -0.31961244 0.32502335 0.24950907 0.3552248
000050 20 2a c1 bd 60 8a 85 be 3c df 8a 3e 0b 7a b0 3e
       -0.09431863 -0.26082134 0.2712344 0.3446811
000060 9d b0 6d 3e 22 ba b1 3e ec 17 25 3d 35 11 b5 3e
       0.23211904 0.3471232 0.040306017 0.3536469
000070 b4 be b4 3e 5c 79 00 3e 1e 1f 65 be 95 cf 81 3e
       0.35301745 0.12546295 -0.22375152 0.25353685

low_depth_feature_extractor.dsconv0.conv.4.running_mean f4 [32]
000000 58 c7 33 3f e5 7a 30 bf 07 e9 50 be 93 1b 55 3e
       0.7022605 -0.6893752 -0.20401393 0.208113
000010 43 24 52 bc b3 50 b4 bc a6 75 0a be 3f 2f 02 bd
       -0.012826028 -0.022011137 -0.13521442 -0.03178334
000020 f3 0b c8 3e 62 dd 24 3d 02 ee 92 3d a5 93 27 bf
       0.39071617 0.04025019 0.07174303 -0.6545966
000030 8c 80 22 bf da 89 dd 3d 97 ff 2b 3e 6d 80 a5 3e
       -0.63477397 0.10817309 0.16796719 0.32324544
000040 77 7c 2b 3f 76 3f b1 be 7a f0 ab 3d f6 64 fb bd
       0.66986793 -0.3461873 0.08395477 -0.12275116
000050 35 db 24 3f 5b 4c fa 3d 4e be ab 3e c5 cc 2a be
       0.64396983 0.12221595 0.33543628 -0.16679676
000060 a3 b2 08 be 57 ac 08 3e 45 d6 e9 be 57 da 98 3e
       -0.13349395 0.13346992 -0.45671287 0.2985408
000070 39 23 3c 3e 24 91 41 3c 74 71 14 3e b7 c7 66 3e
       0.18372811 0.011814389 0.14496404 0.22537123

low_depth_feature_extractor.dsconv0.conv.4.running_var f4 [32]
000000 b8 fb 6a 3e 86 90 02 3f 71 30 34 3f ab 28 67 3f
       0.22947586 0.51001775 0.70386416 0.9029643
000010 fd cb c4 3d 4f 84 0b 3e 7a 10 0e 3f 2e bd 14 3e
       0.0960922 0.1362469 0.5549389 0.14525291
000020 b5 6a b3 3d 22 61 c5 3e 6a e8 b5 3e b0 05 01 3e
       0.08760587 0.3855067 0.3552888 0.12599826
000030 a5 d0 84 3e c8 cf 36 3d 28 84 b9 3d c6 90 65 3f
       0.25940433 0.04463175 0.0905841 0.8967403
000040 01 d6 9e 3e 62 4d 3e 3f df c3 16 3f 12 0c f6 3e
       0.31022647 0.74336827 0.58892626 0.48056084
000050 60 a7 78 3f d9 c1 1b 3e e1 06 b3 3f a4 39 6a 3e
       0.97130394 0.15210666 1.3986474 0.2287355
000060 ac f6 7f 3e 52 a2 b6 3e 71 dd c9 3d 82 8c 4c 3f
       0.24996442 0.35670716 0.0985669 0.799019
000070 6e 71 ae 3d ab ee 8a 3d 62 33 07 3e da 97 28 3f
       0.08517729 0.067838036 0.13203195 0.6585671

low_depth_feature_extractor.dsconv1.conv.0.weight f4 [8, 1, 3, 3]
000000 66 28 27 be 52 17 24 3e ff af 8d 3e 7e 57 96 be
       -0.16324005 0.16024521 0.27673337 -0.29363626
000010 78 b4 1c 3d 3e 60 5e 3e 17 d8 99 3e f0 d2 87 3d
       0.038258046 0.21716401 0.30047676 0.0663203
000020 c0 87 b8 bb 88 94 86 be 4e 43 58 be 72 49 60 3e
       -0.005631417 -0.26285195 -0.21119425 0.21903017
000030 65 29 9a 3e 8f d8 9b 3e f4 ce df 3d 00 eb 2b be
       0.30109707 0.3043866 0.10928145 -0.16788864
000040 fc b7 f1 bd b0 67 a6 3c 4b 7a 47 be ed 95 a1 3e
       -0.1180267 0.020313114 -0.19480245 0.31559697
000050 00 b3 8f 3b f0 cf c8 3d 40 fd 39 be 10 76 8d bc
       0.004385352 0.09805286 -0.18163013 -0.01726821
000060 47 67 84 3e 1d b1 8e 3e 40 61 63 3d 3c b6 de bd
       0.25860044 0.27869502 0.055512667 -0.10874602
000070 c8 9b 26 3e 64 41 99 be 28 b1 1b 3e 26 bc 03 be
       0.16270363 -0.29932702 0.15204298 -0.12864742
000080 30 07 a4 3d 90 12 92 bc 04 c6 c7 3d 86 2a 0a be
       0.080091834 -0.017831117 0.09754565 -0.13492784
000090 b0 31 f9 3c 56 32 5b 3e 80 d6 53 be a3 ab 21 be
       0.0304192 0.2140592 -0.20687294 -0.1578813
0000a0 c6 63 10 be b7 c2 a6 3e 60 ff 6d 3c 56 17 6e 3e
       -0.1410056 0.3257043 0.014526218 0.2325109
0000b0 d0 6f 1a be 5e ce 72 be 7b fa 96 be 93 dc 3f be
       -0.15081716 -0.23711535 -0.29487976 -0.18736486
0000c0 a5 57 aa 3e f4 87 a6 3d c0 78 4f 3d 72 bf 5b 3e
       0.33269992 0.081314 0.050652266 0.2145975
0000d0 e0 26 92 bd 00 64 0c be aa dd 54 3e 3e 9d 20 be
       -0.07136321 -0.13710022 0.20787683 -0.15684983
0000e0 40 1c 29 3d 00 80 f7 3a 39 cb 81 3e 16 9a 10 3e
       0.041286707 0.0018882751 0.2535036 0.14121279
0000f0 c0 26 ce bb a2 fd 99 be 40 6b d4 3b 00 b0 f7 3a
       -0.0062912405 -0.3007632 0.0064825118 0.0018897057
000100 8a 4f 9f be 93 a5 53 be be 85 0b 3e 00 5c 3d bc
       -0.3111537 -0.2066863 0.13625237 -0.011557579
000110 f2 38 7b 3e 18 79 29 bd c0 78 4c be bc 74 d7 bd
       0.24533442 -0.04137525 -0.19967937 -0.10520312

low_depth_feature_extractor.dsconv1.conv.1.weight f4 [8]
000000 00 00 80 3f 00 00 80 3f 00 00 80 3f 00 00 80 3f
       1.0 1.0 1.0 1.0
000010 00 00 80 3f 00 00 80 3f 00 00 80 3f 00 00 80 3f
       1.0 1.0 1.0 1.0

low_depth_feature_extractor.dsconv1.conv.1.bias f4 [8]
000000 00 00 00 00 00 00 00 00 00 00 00 00 00 00 00 00
       0.0 0.0 0.0 0.0
000010 00 00 00 00 00 00 00 00 00 00 00 00 00 00 00 00
       0.0 0.0 0.0 0.0

low_depth_feature_extractor.dsconv1.conv.1.running_mean f4 [8]
000000 00 00 00 00 00 00 00 00 00 00 00 00 00 00 00 00
       0.0 0.0 0.0 0.0
000010 00 00 00 00 00 00 00 00 00 00 00 00 00 00 00 00
       0.0 0.0 0.0 0.0

low_depth_feature_extractor.dsconv1.conv.1.running_var f4 [8]
000000 00 00 80 3f 00 00 80 3f 00 00 80 3f 00 00 80 3f
       1.0 1.0 1.0 1.0
000010 00 00 80 3f 00 00 80 3f 00 00 80 3f 00 00 80 3f
       1.0 1.0 1.0 1.0

low_depth_feature_extractor.dsconv1.conv.3.weight f4 [32, 8, 1, 1]
000000 23 ec 01 be ce 8e dc bd ee e8 12 3e 60 45 ee bd
       -0.12687735 -0.10769425 0.14346668 -0.11634326
000010 c1 ce 00 be a2 c4 73 3e e8 7b 27 bd 95 ea ae 3e
       -0.1257887 0.23805478 -0.04088965 0.34163347
000020 50 ba ac bc 30 43 2c 3d c8 2a 96 3d 94 ae cc bd
       -0.021084934 0.042056262 0.073323786 -0.09994236
000030 2d f3 09 be 8a d6 40 3e e5 7d ae be de 63 7d 3e
       -0.1347167 0.1883184 -0.34080425 0.24745128
000040 37 72 b3 3e cf 88 5a be 04 5f 80 be 2f 9f 53 be
       0.35048077 -0.21341251 -0.2507249 -0.20666192
000050 f6 22 59 3e 24 04 b2 be f8 c5 a9 bd 41 e7 81 3e
       0.21204743 -0.34768784 -0.08289713 0.25371745
000060 4d 16 5c be 0a ce 6e 3e 34 51 a0 bd 57 97 81 be
       -0.21492882 0.23320785 -0.07827988 -0.25310776
000070 88 10 3b 3d 1b 64 ad 3e 88 6a b4 bd 33 07 85 3e
       0.045670062 0.33865437 -0.08809382 0.25982055
000080 2e f0 6f 3e 24 c1 8a 3d b7 3f a3 3e 4f 96 ad 3e
       0.23431465 0.0677512 0.31884548 0.3390374
000090 bd 36 5a be f5 f4 87 3e 6c 4c 0f be 02 51 09 3e
       -0.21309943 0.26554075 -0.13993996 0.13409808
0000a0 a9 85 4b be 98 e5 52 3d c0 97 fa 3d 43 63 a3 3e
       -0.19875206 0.05148849 0.12235975 0.31911668
0000b0 d4 e0 80 bd dc fc b1 3d 24 39 c9 3d ed 0a 88 3e
       -0.062928826 0.08690807 0.09825352 0.26570836
0000c0 58 60 a9 3d 00 c1 ea bb b4 48 83 3d f2 9b 1e 3e
       0.08270329 -0.0071641207 0.064103514 0.15489176
0000d0 ae a4 73 3e f5 8f b1 3e f8 7b fc 3d 24 61 a5 bd
       0.23793289 0.34680143 0.12328333 -0.08075169
0000e0 60 2c 11 3e 98 48 02 3d a9 5c a1 3e 10 cc 0f bd
       0.14177084 0.031807512 0.31516007 -0.03510672
0000f0 78 21 46 bd 89 7f 87 3e 71 b5 65 be f5 d5 9f 3e
       -0.048371762 0.2646449 -0.22432496 0.31217924
000100 ec e8 b5 bd ca f0 24 3e 60 e0 f8 bc 8f c1 82 3e
       -0.08882317 0.16107479 -0.030380428 0.25538298
000110 d8 f4 97 bd 2b f6 16 be 5d 3a 9b 3e 90 80 11 3d
       -0.07419747 -0.14742343 0.30317965 0.035522997
000120 f2 b9 86 be 67 81 94 3e 60 47 bd bc ec 02 a8 be
       -0.2631374 0.29004976 -0.023105323 -0.3281473
000130 2e ac 20 be 10 03 b1 bd b2 6f 41 3e 4c b6 d6 3d
       -0.15690681 -0.08643162 0.18890265 0.10483989
000140 a0 6f a1 bd a1 49 93 3e 1e de 79 3e 56 9e 35 3e
       -0.07882619 0.28767112 0.24401137 0.17736182
000150 88 9a 3c bd b8 e9 83 3d 00 a5 ee 3b 18 a7 51 be
       -0.04604581 0.06441063 0.007282853 -0.20473897
000160 58 92 79 be b3 aa 99 3e c2 fa 01 3e 34 19 a4 be
       -0.24372232 0.30013046 0.12693313 -0.32050478
000170 44 8e 85 be ce 1a 83 be f5 e9 a3 3e 3e a9 75 3e
       -0.26085103 -0.25606388 0.32014433 0.23990342
000180 58 51 68 3d 6c e2 d9 3d 9f 41 80 3e a2 9f 1d be
       0.0567182 0.1063889 0.25050065 -0.15392926
000190 1c 7d f1 3d bc fd 98 bd 91 b5 08 be 23 f8 b3 be
       0.11791441 -0.07470271 -0.13350512 -0.3515025
0001a0 eb 21 07 be 6e 23 48 3e 8a ec 52 be 9a 13 1b 3e
       -0.13196532 0.19544765 -0.20598045 0.15144196
0001b0 03 20 ab 3e fa ed 99 be 56 fe ad be ea 91 32 3e
       0.3342286 -0.30064374 -0.33983105 0.17438474
0001c0 24 86 bb 3d 84 71 02 3e bc 29 10 3e e2 e5 08 3e
       0.09156445 0.12738615 0.1407842 0.13368943
0001d0 6c a9 86 be f4 26 e7 3d b9 25 92 3e a1 83 93 be
       -0.26301134 0.112867266 0.28544405 -0.28811362
0001e0 9e 84 3a 3e 7e f7 0c 3e ae b6 4c 3e c9 2e a9 be
       0.18214652 0.13766286 0.19991562 -0.33043507
0001f0 28 6d d7 bd b4 b6 e8 3d 66 48 12 3e 94 b1 c4 3d
       -0.10518867 0.11362973 0.1428543 0.09604183
000200 f7 ad 8e be c3 46 b1 3e c1 52 61 be 20 36 54 bc
       -0.278671 0.346243 -0.22004224 -0.0129523575
000210 71 b0 1a be 75 e9 92 be 09 09 3e be c9 2c 4d be
       -0.1510637 -0.2869374 -0.18558134 -0.20036615
000220 bc f9 8b bd 33 53 5c be 4f b7 a5 be 6c b4 e8 bd
       -0.068347424 -0.21516113 -0.32366416 -0.11362538
000230 b1 0a 90 3e be 7d 0d be a0 75 c1 bd a7 98 5a be
       0.28133157 -0.13817498 -0.09446263 -0.21347295
000240 a0 e7 34 be 28 6a 15 3d b5 94 a1 3e 0e 9a 2e be
       -0.17666483 0.03647819 0.31558767 -0.17050955
000250 a9 2b 9d 3e 1a 72 2f 3e 98 25 6c bd d0 ea 04 bd
       0.30697373 0.1713337 -0.05765304 -0.032450497
000260 8e 2c 61 3e 02 fc 56 3e 49 c7 a6 3e 08 d9 9a bd
       0.21989653 0.20994571 0.32573918 -0.07560927
000270 88 90 0a bd 60 39 83 3c 82 92 6d be 98 20 b2 be
       -0.033829242 0.01601857 -0.2320042 -0.34790492
000280 4a 69 6f 3e 9d ba 9c be 28 e0 96 3d 58 44 72 be
       0.23380008 -0.30611125 0.07366973 -0.23658884
000290 50 b0 a6 be 20 1a 62 3c c4 75 c7 bd 34 4d c2 bd
       -0.3255639 0.013800174 -0.09739259 -0.094873816
0002a0 a7 cc 99 3e 6c 40 c9 3d 26 17 59 3e 7d 07 98 be
       0.3003895 0.098267406 0.21200237 -0.29693213
0002b0 48 96 b1 be 0c 2b ca 3d 18 dd b4 3d 29 61 a9 3e
       -0.34684968 0.09871492 0.08831233 0.3308194
0002c0 fc e4 e1 bd b8 43 ed 3d 15 e1 a5 be b8 cf 08 bd
       -0.110300034 0.11585182 -0.32398286 -0.03340122
0002d0 48 87 79 3d 40 13 1e 3c 60 7f 70 3c 05 43 a6 3e
       0.06092003 0.009648144 0.014678806 0.32473007
0002e0 b0 3c 68 3d bb 48 1a be 77 59 ae 3e c7 b0 9d 3e
       0.0566985 -0.15066807 0.3405263 0.30798933
0002f0 a8 d8 47 be 00 53 0b bd 78 6b 5a bd 42 b5 66 be
       -0.19516242 -0.0340147 -0.053325146 -0.22530082
000300 10 24 97 3c a8 5c e2 bd b5 12 9a 3e 7c 61 9e bd
       0.018449813 -0.11052829 0.30092397 -0.077334374
000310 f5 fb 23 be 6c 11 a2 bd d1 a7 61 be 26 a8 7d 3e
       -0.16014083 -0.07913479 -0.22036673 0.24771175
000320 92 a6 7a be 03 ae b2 3e 00 71 76 bb cc e9 18 be
       -0.24477604 0.34898385 -0.0037603974 -0.14932936
000330 dc e5 fc 3d 84 bf 0b 3e 6a b7 7f be 44 b0 eb 3d
       0.1234853 0.13647276 -0.2497231 0.115082294
000340 ac 57 81 3d 9c 8e bd bd 4c 07 e7 3d 8c 7f e7 3d
       0.0631555 -0.09255716 0.11280689 0.113036245
000350 90 06 82 3d 14 cf 8f bd c0 af a0 3c 76 e9 61 3e
       0.06348908 -0.07021919 0.019615054 0.22061715
000360 e5 05 64 be c0 73 95 bd 57 d2 ae be 90 cc 37 be
       -0.22267874 -0.07297468 -0.34144852 -0.17949128
000370 28 2f 96 be e6 7e 4e 3e 7c bd 90 be 8f 52 96 3e
       -0.29332852 0.20165595 -0.28269565 0.29359862
000380 a0 d4 27 be 84 e2 07 3e d1 97 ad be 4b 30 9c 3e
       -0.16389704 0.13270003 -0.3390489 0.30505595
000390 ef 8b 45 be ed 6b a6 3e 72 f4 18 be 15 17 9f 3e
       -0.19291662 0.32504216 -0.14936998 0.31072298
0003a0 13 24 0d be 95 21 a4 3e 6c cb bf bd 94 c1 e6 bd
       -0.13783292 0.3205687 -0.093649715 -0.11267391
0003b0 10 da 21 bd 5b eb 09 be a6 aa 3f be 60 36 9d 3d
       -0.0395146 -0.13468687 -0.18717441 0.07676387
0003c0 40 b3 8c 3b 4b 67 b2 be 0c 59 c2 3d bb 91 ae 3e
       0.004293829 -0.3484443 0.094896406 0.3409556
0003d0 80 30 c6 3c 50 86 3b bd f8 12 ee bd e0 02 d3 3c
       0.024193048 -0.045782387 -0.11624712 0.025758207
0003e0 c2 ee 8f be 90 11 4f be cf 58 09 be 7c cb e8 3d
       -0.28111845 -0.20221543 -0.13412784 0.113669366
0003f0 3e 2b 96 be 03 3e ad 3e 41 6f a0 3e e9 19 8f 3e
       -0.29329866 0.33836374 0.3133488 0.27949455

low_depth_feature_extractor.dsconv1.conv.4.weight f4 [32]
000000 00 00 80 3f 00 00 80 3f 00 00 80 3f 00 00 80 3f
       1.0 1.0 1.0 1.0
000010 00 00 80 3f 00 00 80 3f 00 00 80 3f 00 00 80 3f
       1.0 1.0 1.0 1.0
000020 00 00 80 3f 00 00 80 3f 00 00 80 3f 00 00 80 3f
       1.0 1.0 1.0 1.0
000030 00 00 80 3f 00 00 80 3f 00 00 80 3f 00 00 80 3f
       1.0 1.0 1.0 1.0
000040 00 00 80 3f 00 00 80 3f 00 00 80 3f 00 00 80 3f
       1.0 1.0 1.0 1.0
000050 00 00 80 3f 00 00 80 3f 00 00 80 3f 00 00 80 3f
       1.0 1.0 1.0 1.0
000060 00 00 80 3f 00 00 80 3f 00 00 80 3f 00 00 80 3f
       1.0 1.0 1.0 1.0
000070 00 00 80 3f 00 00 80 3f 00 00 80 3f 00 00 80 3f
       1.0 1.0 1.0 1.0

low_depth_feature_extractor.dsconv1.conv.4.bias f4 [32]
000000 00 00 00 00 00 00 00 00 00 00 00 00 00 00 00 00
       0.0 0.0 0.0 0.0
000010 00 00 00 00 00 00 00 00 00 00 00 00 00 00 00 00
       0.0 0.0 0.0 0.0
000020 00 00 00 00 00 00 00 00 00 00 00 00 00 00 00 00
       0.0 0.0 0.0 0.0
000030 00 00 00 00 00 00 00 00 00 00 00 00 00 00 00 00
       0.0 0.0 0.0 0.0
000040 00 00 00 00 00 00 00 00 00 00 00 00 00 00 00 00
       0.0 0.0 0.0 0.0
000050 00 00 00 00 00 00 00 00 00 00 00 00 00 00 00 00
       0.0 0.0 0.0 0.0
000060 00 00 00 00 00 00 00 00 00 00 00 00 00 00 00 00
       0.0 0.0 0.0 0.0
000070 00 00 00 00 00 00 00 00 00 00 00 00 00 00 00 00
       0.0 0.0 0.0 0.0

low_depth_feature_extractor.dsconv1.conv.4.running_mean f4 [32]
000000 00 00 00 00 00 00 00 00 00 00 00 00 00 00 00 00
       0.0 0.0 0.0 0.0
000010 00 00 00 00 00 00 00 00 00 00 00 00 00 00 00 00
       0.0 0.0 0.0 0.0
000020 00 00 00 00 00 00 00 00 00 00 00 00 00 00 00 00
       0.0 0.0 0.0 0.0
000030 00 00 00 00 00 00 00 00 00 00 00 00 00 00 00 00
       0.0 0.0 0.0 0.0
000040 00 00 00 00 00 00 00 00 00 00 00 00 00 00 00 00
       0.0 0.0 0.0 0.0
000050 00 00 00 00 00 00 00 00 00 00 00 00 00 00 00 00
       0.0 0.0 0.0 0.0
000060 00 00 00 00 00 00 00 00 00 00 00 00 00 00 00 00
       0.0 0.0 0.0 0.0
000070 00 00 00 00 00 00 00 00 00 00 00 00 00 00 00 00
       0.0 0.0 0.0 0.0

low_depth_feature_extractor.dsconv1.conv.4.running_var f4 [32]
000000 00 00 80 3f 00 00 80 3f 00 00 80 3f 00 00 80 3f
       1.0 1.0 1.0 1.0
000010 00 00 80 3f 00 00 80 3f 00 00 80 3f 00 00 80 3f
       1.0 1.0 1.0 1.0
000020 00 00 80 3f 00 00 80 3f 00 00 80 3f 00 00 80 3f
       1.0 1.0 1.0 1.0
000030 00 00 80 3f 00 00 80 3f 00 00 80 3f 00 00 80 3f
       1.0 1.0 1.0 1.0
000040 00 00 80 3f 00 00 80 3f 00 00 80 3f 00 00 80 3f
       1.0 1.0 1.0 1.0
000050 00 00 80 3f 00 00 80 3f 00 00 80 3f 00 00 80 3f
       1.0 1.0 1.0 1.0
000060 00 00 80 3f 00 00 80 3f 00 00 80 3f 00 00 80 3f
       1.0 1.0 1.0 1.0
000070 00 00 80 3f 00 00 80 3f 00 00 80 3f 00 00 80 3f
       1.0 1.0 1.0 1.0
